…
====
Layer (type:depth-idx)                                                      Input Shape               Output Shape              Param #                   Param %                   Kernel Shape              Mult-Adds                 Trainable
==========================================================================================================================================================================================================================================================
Squeezeformer                                                               [4, 500, 80]              [4, 122, 10]              --                             --                   --                        --                        True
├─SqueezeformerEncoder: 1-1                                                 [4, 500, 80]              [4, 122, 512]             --                             --                   --                        --                        True
│    └─DepthwiseConv2dSubsampling: 2-1                                      [4, 500, 80]              [4, 124, 9728]            --                             --                   --                        --                        True
│    │    └─Sequential: 3-1                                                 [4, 1, 500, 80]           [4, 512, 124, 19]         --                             --                   --                        --                        True
│    │    │    └─Conv2d: 4-1                                                [4, 1, 500, 80]           [4, 512, 249, 39]         5,120                       0.00%                   [3, 3]                    198,881,280               True
│    │    │    └─ReLU: 4-2                                                  [4, 512, 249, 39]         [4, 512, 249, 39]         --                             --                   --                        --                        --
│    │    │    └─DepthwiseConv2d: 4-3                                       [4, 512, 249, 39]         [4, 512, 124, 19]         --                             --                   --                        --                        True
│    │    │    │    └─Conv2d: 5-1                                           [4, 512, 249, 39]         [4, 512, 124, 19]         5,120                       0.00%                   [3, 3]                    48,250,880                True
│    │    │    └─ReLU: 4-4                                                  [4, 512, 124, 19]         [4, 512, 124, 19]         --                             --                   --                        --                        --
│    └─Sequential: 2-2                                                      [4, 124, 9728]            [4, 124, 512]             --                             --                   --                        --                        True
│    │    └─Linear: 3-2                                                     [4, 124, 9728]            [4, 124, 512]             4,981,248                   4.68%                   --                        19,924,992                True
│    │    └─Dropout: 3-3                                                    [4, 124, 512]             [4, 124, 512]             --                             --                   --                        --                        --
│    └─ModuleList: 2-8                                                      --                        --                        (recursive)               (recursive)               --                        --                        True
│    │    └─SqueezeformerBlock: 3-4                                         [4, 124, 512]             [4, 124, 512]             --                             --                   --                        --                        True
│    │    │    └─Sequential: 4-5                                            [4, 124, 512]             [4, 124, 512]             --                             --                   --                        --                        True
│    │    │    │    └─ResidualConnectionModule: 5-2                         [4, 124, 512]             [4, 124, 512]             --                             --                   --                        --                        True
│    │    │    │    │    └─MultiHeadedSelfAttentionModule: 6-1              [4, 124, 512]             [4, 124, 512]             1,313,792                   1.23%                   --                        5,251,072                 True
│    │    │    │    └─LayerNorm: 5-3                                        [4, 124, 512]             [4, 124, 512]             1,024                       0.00%                   --                        4,096                     True
│    │    │    │    └─ResidualConnectionModule: 5-4                         [4, 124, 512]             [4, 124, 512]             --                             --                   --                        --                        True
│    │    │    │    │    └─FeedForwardModule: 6-2                           [4, 124, 512]             [4, 124, 512]             2,099,712                   1.97%                   --                        8,398,848                 True
│    │    │    │    └─LayerNorm: 5-5                                        [4, 124, 512]             [4, 124, 512]             1,024                       0.00%                   --                        4,096                     True
│    │    │    │    └─ResidualConnectionModule: 5-6                         [4, 124, 512]             [4, 124, 512]             --                             --                   --                        --                        True
│    │    │    │    │    └─ConvModule: 6-3                                  [4, 124, 512]             [4, 124, 512]             804,864                     0.76%                   --                        398,708,736               True
│    │    │    │    └─LayerNorm: 5-7                                        [4, 124, 512]             [4, 124, 512]             1,024                       0.00%                   --                        4,096                     True
│    │    │    │    └─ResidualConnectionModule: 5-8                         [4, 124, 512]             [4, 124, 512]             --                             --                   --                        --                        True
│    │    │    │    │    └─FeedForwardModule: 6-4                           [4, 124, 512]             [4, 124, 512]             2,099,712                   1.97%                   --                        8,398,848                 True
│    │    │    │    └─LayerNorm: 5-9                                        [4, 124, 512]             [4, 124, 512]             1,024                       0.00%                   --                        4,096                     True
│    │    └─SqueezeformerBlock: 3-5                                         [4, 124, 512]             [4, 124, 512]             --                             --                   --                        --                        True
│    │    │    └─Sequential: 4-6                                            [4, 124, 512]             [4, 124, 512]             --                             --                   --                        --                        True
│    │    │    │    └─ResidualConnectionModule: 5-10                        [4, 124, 512]             [4, 124, 512]             --                             --                   --                        --                        True
│    │    │    │    │    └─MultiHeadedSelfAttentionModule: 6-5              [4, 124, 512]             [4, 124, 512]             1,313,792                   1.23%                   --                        5,251,072                 True
│    │    │    │    └─LayerNorm: 5-11                                       [4, 124, 512]             [4, 124, 512]             1,024                       0.00%                   --                        4,096                     True
│    │    │    │    └─ResidualConnectionModule: 5-12                        [4, 124, 512]             [4, 124, 512]             --                             --                   --                        --                        True
│    │    │    │    │    └─FeedForwardModule: 6-6                           [4, 124, 512]             [4, 124, 512]             2,099,712                   1.97%                   --                        8,398,848                 True
│    │    │    │    └─LayerNorm: 5-13                                       [4, 124, 512]             [4, 124, 512]             1,024                       0.00%                   --                        4,096                     True
│    │    │    │    └─ResidualConnectionModule: 5-14                        [4, 124, 512]             [4, 124, 512]             --                             --                   --                        --                        True
│    │    │    │    │    └─ConvModule: 6-7                                  [4, 124, 512]             [4, 124, 512]             804,864                     0.76%                   --                        398,708,736               True
│    │    │    │    └─LayerNorm: 5-15                                       [4, 124, 512]             [4, 124, 512]             1,024                       0.00%                   --                        4,096                     True
│    │    │    │    └─ResidualConnectionModule: 5-16                        [4, 124, 512]             [4, 124, 512]             --                             --                   --                        --                        True
│    │    │    │    │    └─FeedForwardModule: 6-8                           [4, 124, 512]             [4, 124, 512]             2,099,712                   1.97%                   --                        8,398,848                 True
│    │    │    │    └─LayerNorm: 5-17                                       [4, 124, 512]             [4, 124, 512]             1,024                       0.00%                   --                        4,096                     True
│    │    └─SqueezeformerBlock: 3-6                                         [4, 124, 512]             [4, 124, 512]             --                             --                   --                        --                        True
│    │    │    └─Sequential: 4-7                                            [4, 124, 512]             [4, 124, 512]             --                             --                   --                        --                        True
│    │    │    │    └─ResidualConnectionModule: 5-18                        [4, 124, 512]             [4, 124, 512]             --                             --                   --                        --                        True
│    │    │    │    │    └─MultiHeadedSelfAttentionModule: 6-9              [4, 124, 512]             [4, 124, 512]             1,313,792                   1.23%                   --                        5,251,072                 True
│    │    │    │    └─LayerNorm: 5-19                                       [4, 124, 512]             [4, 124, 512]             1,024                       0.00%                   --                        4,096                     True
│    │    │    │    └─ResidualConnectionModule: 5-20                        [4, 124, 512]             [4, 124, 512]             --                             --                   --                        --                        True
│    │    │    │    │    └─FeedForwardModule: 6-10                          [4, 124, 512]             [4, 124, 512]             2,099,712                   1.97%                   --                        8,398,848                 True
│    │    │    │    └─LayerNorm: 5-21                                       [4, 124, 512]             [4, 124, 512]             1,024                       0.00%                   --                        4,096                     True
│    │    │    │    └─ResidualConnectionModule: 5-22                        [4, 124, 512]             [4, 124, 512]             --                             --                   --                        --                        True
│    │    │    │    │    └─ConvModule: 6-11                                 [4, 124, 512]             [4, 124, 512]             804,864                     0.76%                   --                        398,708,736               True
│    │    │    │    └─LayerNorm: 5-23                                       [4, 124, 512]             [4, 124, 512]             1,024                       0.00%                   --                        4,096                     True
│    │    │    │    └─ResidualConnectionModule: 5-24                        [4, 124, 512]             [4, 124, 512]             --                             --                   --                        --                        True
│    │    │    │    │    └─FeedForwardModule: 6-12                          [4, 124, 512]             [4, 124, 512]             2,099,712                   1.97%                   --                        8,398,848                 True
│    │    │    │    └─LayerNorm: 5-25                                       [4, 124, 512]             [4, 124, 512]             1,024                       0.00%                   --                        4,096                     True
│    │    └─SqueezeformerBlock: 3-7                                         [4, 124, 512]             [4, 124, 512]             --                             --                   --                        --                        True
│    │    │    └─Sequential: 4-8                                            [4, 124, 512]             [4, 124, 512]             --                             --                   --                        --                        True
│    │    │    │    └─ResidualConnectionModule: 5-26                        [4, 124, 512]             [4, 124, 512]             --                             --                   --                        --                        True
│    │    │    │    │    └─MultiHeadedSelfAttentionModule: 6-13             [4, 124, 512]             [4, 124, 512]             1,313,792                   1.23%                   --                        5,251,072                 True
│    │    │    │    └─LayerNorm: 5-27                                       [4, 124, 512]             [4, 124, 512]             1,024                       0.00%                   --                        4,096                     True
│    │    │    │    └─ResidualConnectionModule: 5-28                        [4, 124, 512]             [4, 124, 512]             --                             --                   --                        --                        True
│    │    │    │    │    └─FeedForwardModule: 6-14                          [4, 124, 512]             [4, 124, 512]             2,099,712                   1.97%                   --                        8,398,848                 True
│    │    │    │    └─LayerNorm: 5-29                                       [4, 124, 512]             [4, 124, 512]             1,024                       0.00%                   --                        4,096                     True
│    │    │    │    └─ResidualConnectionModule: 5-30                        [4, 124, 512]             [4, 124, 512]             --                             --                   --                        --                        True
│    │    │    │    │    └─ConvModule: 6-15                                 [4, 124, 512]             [4, 124, 512]             804,864                     0.76%                   --                        398,708,736               True
│    │    │    │    └─LayerNorm: 5-31                                       [4, 124, 512]             [4, 124, 512]             1,024                       0.00%                   --                        4,096                     True
│    │    │    │    └─ResidualConnectionModule: 5-32                        [4, 124, 512]             [4, 124, 512]             --                             --                   --                        --                        True
│    │    │    │    │    └─FeedForwardModule: 6-16                          [4, 124, 512]             [4, 124, 512]             2,099,712                   1.97%                   --                        8,398,848                 True
│    │    │    │    └─LayerNorm: 5-33                                       [4, 124, 512]             [4, 124, 512]             1,024                       0.00%                   --                        4,096                     True
│    │    └─SqueezeformerBlock: 3-8                                         [4, 124, 512]             [4, 124, 512]             --                             --                   --                        --                        True
│    │    │    └─Sequential: 4-9                                            [4, 124, 512]             [4, 124, 512]             --                             --                   --                        --                        True
│    │    │    │    └─ResidualConnectionModule: 5-34                        [4, 124, 512]             [4, 124, 512]             --                             --                   --                        --                        True
│    │    │    │    │    └─MultiHeadedSelfAttentionModule: 6-17             [4, 124, 512]             [4, 124, 512]             1,313,792                   1.23%                   --                        5,251,072                 True
│    │    │    │    └─LayerNorm: 5-35                                       [4, 124, 512]             [4, 124, 512]             1,024                       0.00%                   --                        4,096                     True
│    │    │    │    └─ResidualConnectionModule: 5-36                        [4, 124, 512]             [4, 124, 512]             --                             --                   --                        --                        True
│    │    │    │    │    └─FeedForwardModule: 6-18                          [4, 124, 512]             [4, 124, 512]             2,099,712                   1.97%                   --                        8,398,848                 True
│    │    │    │    └─LayerNorm: 5-37                                       [4, 124, 512]             [4, 124, 512]             1,024                       0.00%                   --                        4,096                     True
│    │    │    │    └─ResidualConnectionModule: 5-38                        [4, 124, 512]             [4, 124, 512]             --                             --                   --                        --                        True
│    │    │    │    │    └─ConvModule: 6-19                                 [4, 124, 512]             [4, 124, 512]             804,864                     0.76%                   --                        398,708,736               True
│    │    │    │    └─LayerNorm: 5-39                                       [4, 124, 512]             [4, 124, 512]             1,024                       0.00%                   --                        4,096                     True
│    │    │    │    └─ResidualConnectionModule: 5-40                        [4, 124, 512]             [4, 124, 512]             --                             --                   --                        --                        True
│    │    │    │    │    └─FeedForwardModule: 6-20                          [4, 124, 512]             [4, 124, 512]             2,099,712                   1.97%                   --                        8,398,848                 True
│    │    │    │    └─LayerNorm: 5-41                                       [4, 124, 512]             [4, 124, 512]             1,024                       0.00%                   --                        4,096                     True
│    │    └─SqueezeformerBlock: 3-9                                         [4, 124, 512]             [4, 124, 512]             --                             --                   --                        --                        True
│    │    │    └─Sequential: 4-10                                           [4, 124, 512]             [4, 124, 512]             --                             --                   --                        --                        True
│    │    │    │    └─ResidualConnectionModule: 5-42                        [4, 124, 512]             [4, 124, 512]             --                             --                   --                        --                        True
│    │    │    │    │    └─MultiHeadedSelfAttentionModule: 6-21             [4, 124, 512]             [4, 124, 512]             1,313,792                   1.23%                   --                        5,251,072                 True
│    │    │    │    └─LayerNorm: 5-43                                       [4, 124, 512]             [4, 124, 512]             1,024                       0.00%                   --                        4,096                     True
│    │    │    │    └─ResidualConnectionModule: 5-44                        [4, 124, 512]             [4, 124, 512]             --                             --                   --                        --                        True
│    │    │    │    │    └─FeedForwardModule: 6-22                          [4, 124, 512]             [4, 124, 512]             2,099,712                   1.97%                   --                        8,398,848                 True
│    │    │    │    └─LayerNorm: 5-45                                       [4, 124, 512]             [4, 124, 512]             1,024                       0.00%                   --                        4,096                     True
│    │    │    │    └─ResidualConnectionModule: 5-46                        [4, 124, 512]             [4, 124, 512]             --                             --                   --                        --                        True
│    │    │    │    │    └─ConvModule: 6-23                                 [4, 124, 512]             [4, 124, 512]             804,864                     0.76%                   --                        398,708,736               True
│    │    │    │    └─LayerNorm: 5-47                                       [4, 124, 512]             [4, 124, 512]             1,024                       0.00%                   --                        4,096                     True
│    │    │    │    └─ResidualConnectionModule: 5-48                        [4, 124, 512]             [4, 124, 512]             --                             --                   --                        --                        True
│    │    │    │    │    └─FeedForwardModule: 6-24                          [4, 124, 512]             [4, 124, 512]             2,099,712                   1.97%                   --                        8,398,848                 True
│    │    │    │    └─LayerNorm: 5-49                                       [4, 124, 512]             [4, 124, 512]             1,024                       0.00%                   --                        4,096                     True
│    │    └─SqueezeformerBlock: 3-10                                        [4, 124, 512]             [4, 124, 512]             --                             --                   --                        --                        True
│    │    │    └─Sequential: 4-11                                           [4, 124, 512]             [4, 124, 512]             --                             --                   --                        --                        True
│    │    │    │    └─ResidualConnectionModule: 5-50                        [4, 124, 512]             [4, 124, 512]             --                             --                   --                        --                        True
│    │    │    │    │    └─MultiHeadedSelfAttentionModule: 6-25             [4, 124, 512]             [4, 124, 512]             1,313,792                   1.23%                   --                        5,251,072                 True
│    │    │    │    └─LayerNorm: 5-51                                       [4, 124, 512]             [4, 124, 512]             1,024                       0.00%                   --                        4,096                     True
│    │    │    │    └─ResidualConnectionModule: 5-52                        [4, 124, 512]             [4, 124, 512]             --                             --                   --                        --                        True
│    │    │    │    │    └─FeedForwardModule: 6-26                          [4, 124, 512]             [4, 124, 512]             2,099,712                   1.97%                   --                        8,398,848                 True
│    │    │    │    └─LayerNorm: 5-53                                       [4, 124, 512]             [4, 124, 512]             1,024                       0.00%                   --                        4,096                     True
│    │    │    │    └─ResidualConnectionModule: 5-54                        [4, 124, 512]             [4, 124, 512]             --                             --                   --                        --                        True
│    │    │    │    │    └─ConvModule: 6-27                                 [4, 124, 512]             [4, 124, 512]             804,864                     0.76%                   --                        398,708,736               True
│    │    │    │    └─LayerNorm: 5-55                                       [4, 124, 512]             [4, 124, 512]             1,024                       0.00%                   --                        4,096                     True
│    │    │    │    └─ResidualConnectionModule: 5-56                        [4, 124, 512]             [4, 124, 512]             --                             --                   --                        --                        True
│    │    │    │    │    └─FeedForwardModule: 6-28                          [4, 124, 512]             [4, 124, 512]             2,099,712                   1.97%                   --                        8,398,848                 True
│    │    │    │    └─LayerNorm: 5-57                                       [4, 124, 512]             [4, 124, 512]             1,024                       0.00%                   --                        4,096                     True
│    └─TimeReductionLayer: 2-4                                              [4, 124, 512]             [4, 61, 255]              --                             --                   --                        --                        True
│    │    └─Sequential: 3-11                                                [4, 1, 124, 512]          [4, 1, 61, 255]           --                             --                   --                        --                        True
│    │    │    └─DepthwiseConv2d: 4-12                                      [4, 1, 124, 512]          [4, 1, 61, 255]           --                             --                   --                        --                        True
│    │    │    │    └─Conv2d: 5-58                                          [4, 1, 124, 512]          [4, 1, 61, 255]           10                          0.00%                   [3, 3]                    622,200                   True
│    │    │    └─Swish: 4-13                                                [4, 1, 61, 255]           [4, 1, 61, 255]           --                             --                   --                        --                        --
│    └─Linear: 2-5                                                          [4, 61, 255]              [4, 61, 512]              131,072                     0.12%                   --                        524,288                   True
│    └─ModuleList: 2-8                                                      --                        --                        (recursive)               (recursive)               --                        --                        True
│    │    └─ResidualConnectionModule: 3-12                                  [4, 61, 512]              [4, 61, 512]              --                             --                   --                        --                        True
│    │    │    └─SqueezeformerBlock: 4-14                                   [4, 61, 512]              [4, 61, 512]              --                             --                   --                        --                        True
│    │    │    │    └─Sequential: 5-59                                      [4, 61, 512]              [4, 61, 512]              --                             --                   --                        --                        True
│    │    │    │    │    └─ResidualConnectionModule: 6-29                   [4, 61, 512]              [4, 61, 512]              1,313,792                   1.23%                   --                        5,251,072                 True
│    │    │    │    │    └─LayerNorm: 6-30                                  [4, 61, 512]              [4, 61, 512]              1,024                       0.00%                   --                        4,096                     True
│    │    │    │    │    └─ResidualConnectionModule: 6-31                   [4, 61, 512]              [4, 61, 512]              2,099,712                   1.97%                   --                        8,398,848                 True
│    │    │    │    │    └─LayerNorm: 6-32                                  [4, 61, 512]              [4, 61, 512]              1,024                       0.00%                   --                        4,096                     True
│    │    │    │    │    └─ResidualConnectionModule: 6-33                   [4, 61, 512]              [4, 61, 512]              804,864                     0.76%                   --                        196,141,056               True
│    │    │    │    │    └─LayerNorm: 6-34                                  [4, 61, 512]              [4, 61, 512]              1,024                       0.00%                   --                        4,096                     True
│    │    │    │    │    └─ResidualConnectionModule: 6-35                   [4, 61, 512]              [4, 61, 512]              2,099,712                   1.97%                   --                        8,398,848                 True
│    │    │    │    │    └─LayerNorm: 6-36                                  [4, 61, 512]              [4, 61, 512]              1,024                       0.00%                   --                        4,096                     True
│    │    └─ResidualConnectionModule: 3-13                                  [4, 61, 512]              [4, 61, 512]              --                             --                   --                        --                        True
│    │    │    └─SqueezeformerBlock: 4-15                                   [4, 61, 512]              [4, 61, 512]              --                             --                   --                        --                        True
│    │    │    │    └─Sequential: 5-60                                      [4, 61, 512]              [4, 61, 512]              --                             --                   --                        --                        True
│    │    │    │    │    └─ResidualConnectionModule: 6-37                   [4, 61, 512]              [4, 61, 512]              1,313,792                   1.23%                   --                        5,251,072                 True
│    │    │    │    │    └─LayerNorm: 6-38                                  [4, 61, 512]              [4, 61, 512]              1,024                       0.00%                   --                        4,096                     True
│    │    │    │    │    └─ResidualConnectionModule: 6-39                   [4, 61, 512]              [4, 61, 512]              2,099,712                   1.97%                   --                        8,398,848                 True
│    │    │    │    │    └─LayerNorm: 6-40                                  [4, 61, 512]              [4, 61, 512]              1,024                       0.00%                   --                        4,096                     True
│    │    │    │    │    └─ResidualConnectionModule: 6-41                   [4, 61, 512]              [4, 61, 512]              804,864                     0.76%                   --                        196,141,056               True
│    │    │    │    │    └─LayerNorm: 6-42                                  [4, 61, 512]              [4, 61, 512]              1,024                       0.00%                   --                        4,096                     True
│    │    │    │    │    └─ResidualConnectionModule: 6-43                   [4, 61, 512]              [4, 61, 512]              2,099,712                   1.97%                   --                        8,398,848                 True
│    │    │    │    │    └─LayerNorm: 6-44                                  [4, 61, 512]              [4, 61, 512]              1,024                       0.00%                   --                        4,096                     True
│    │    └─ResidualConnectionModule: 3-14                                  [4, 61, 512]              [4, 61, 512]              --                             --                   --                        --                        True
│    │    │    └─SqueezeformerBlock: 4-16                                   [4, 61, 512]              [4, 61, 512]              --                             --                   --                        --                        True
│    │    │    │    └─Sequential: 5-61                                      [4, 61, 512]              [4, 61, 512]              --                             --                   --                        --                        True
│    │    │    │    │    └─ResidualConnectionModule: 6-45                   [4, 61, 512]              [4, 61, 512]              1,313,792                   1.23%                   --                        5,251,072                 True
│    │    │    │    │    └─LayerNorm: 6-46                                  [4, 61, 512]              [4, 61, 512]              1,024                       0.00%                   --                        4,096                     True
│    │    │    │    │    └─ResidualConnectionModule: 6-47                   [4, 61, 512]              [4, 61, 512]              2,099,712                   1.97%                   --                        8,398,848                 True
│    │    │    │    │    └─LayerNorm: 6-48                                  [4, 61, 512]              [4, 61, 512]              1,024                       0.00%                   --                        4,096                     True
│    │    │    │    │    └─ResidualConnectionModule: 6-49                   [4, 61, 512]              [4, 61, 512]              804,864                     0.76%                   --                        196,141,056               True
│    │    │    │    │    └─LayerNorm: 6-50                                  [4, 61, 512]              [4, 61, 512]              1,024                       0.00%                   --                        4,096                     True
│    │    │    │    │    └─ResidualConnectionModule: 6-51                   [4, 61, 512]              [4, 61, 512]              2,099,712                   1.97%                   --                        8,398,848                 True
│    │    │    │    │    └─LayerNorm: 6-52                                  [4, 61, 512]              [4, 61, 512]              1,024                       0.00%                   --                        4,096                     True
│    │    └─ResidualConnectionModule: 3-15                                  [4, 61, 512]              [4, 61, 512]              --                             --                   --                        --                        True
│    │    │    └─SqueezeformerBlock: 4-17                                   [4, 61, 512]              [4, 61, 512]              --                             --                   --                        --                        True
│    │    │    │    └─Sequential: 5-62                                      [4, 61, 512]              [4, 61, 512]              --                             --                   --                        --                        True
│    │    │    │    │    └─ResidualConnectionModule: 6-53                   [4, 61, 512]              [4, 61, 512]              1,313,792                   1.23%                   --                        5,251,072                 True
│    │    │    │    │    └─LayerNorm: 6-54                                  [4, 61, 512]              [4, 61, 512]              1,024                       0.00%                   --                        4,096                     True
│    │    │    │    │    └─ResidualConnectionModule: 6-55                   [4, 61, 512]              [4, 61, 512]              2,099,712                   1.97%                   --                        8,398,848                 True
│    │    │    │    │    └─LayerNorm: 6-56                                  [4, 61, 512]              [4, 61, 512]              1,024                       0.00%                   --                        4,096                     True
│    │    │    │    │    └─ResidualConnectionModule: 6-57                   [4, 61, 512]              [4, 61, 512]              804,864                     0.76%                   --                        196,141,056               True
│    │    │    │    │    └─LayerNorm: 6-58                                  [4, 61, 512]              [4, 61, 512]              1,024                       0.00%                   --                        4,096                     True
│    │    │    │    │    └─ResidualConnectionModule: 6-59                   [4, 61, 512]              [4, 61, 512]              2,099,712                   1.97%                   --                        8,398,848                 True
│    │    │    │    │    └─LayerNorm: 6-60                                  [4, 61, 512]              [4, 61, 512]              1,024                       0.00%                   --                        4,096                     True
│    │    └─ResidualConnectionModule: 3-16                                  [4, 61, 512]              [4, 61, 512]              --                             --                   --                        --                        True
│    │    │    └─SqueezeformerBlock: 4-18                                   [4, 61, 512]              [4, 61, 512]              --                             --                   --                        --                        True
│    │    │    │    └─Sequential: 5-63                                      [4, 61, 512]              [4, 61, 512]              --                             --                   --                        --                        True
│    │    │    │    │    └─ResidualConnectionModule: 6-61                   [4, 61, 512]              [4, 61, 512]              1,313,792                   1.23%                   --                        5,251,072                 True
│    │    │    │    │    └─LayerNorm: 6-62                                  [4, 61, 512]              [4, 61, 512]              1,024                       0.00%                   --                        4,096                     True
│    │    │    │    │    └─ResidualConnectionModule: 6-63                   [4, 61, 512]              [4, 61, 512]              2,099,712                   1.97%                   --                        8,398,848                 True
│    │    │    │    │    └─LayerNorm: 6-64                                  [4, 61, 512]              [4, 61, 512]              1,024                       0.00%                   --                        4,096                     True
│    │    │    │    │    └─ResidualConnectionModule: 6-65                   [4, 61, 512]              [4, 61, 512]              804,864                     0.76%                   --                        196,141,056               True
│    │    │    │    │    └─LayerNorm: 6-66                                  [4, 61, 512]              [4, 61, 512]              1,024                       0.00%                   --                        4,096                     True
│    │    │    │    │    └─ResidualConnectionModule: 6-67                   [4, 61, 512]              [4, 61, 512]              2,099,712                   1.97%                   --                        8,398,848                 True
│    │    │    │    │    └─LayerNorm: 6-68                                  [4, 61, 512]              [4, 61, 512]              1,024                       0.00%                   --                        4,096                     True
│    │    └─ResidualConnectionModule: 3-17                                  [4, 61, 512]              [4, 61, 512]              --                             --                   --                        --                        True
│    │    │    └─SqueezeformerBlock: 4-19                                   [4, 61, 512]              [4, 61, 512]              --                             --                   --                        --                        True
│    │    │    │    └─Sequential: 5-64                                      [4, 61, 512]              [4, 61, 512]              --                             --                   --                        --                        True
│    │    │    │    │    └─ResidualConnectionModule: 6-69                   [4, 61, 512]              [4, 61, 512]              1,313,792                   1.23%                   --                        5,251,072                 True
│    │    │    │    │    └─LayerNorm: 6-70                                  [4, 61, 512]              [4, 61, 512]              1,024                       0.00%                   --                        4,096                     True
│    │    │    │    │    └─ResidualConnectionModule: 6-71                   [4, 61, 512]              [4, 61, 512]              2,099,712                   1.97%                   --                        8,398,848                 True
│    │    │    │    │    └─LayerNorm: 6-72                                  [4, 61, 512]              [4, 61, 512]              1,024                       0.00%                   --                        4,096                     True
│    │    │    │    │    └─ResidualConnectionModule: 6-73                   [4, 61, 512]              [4, 61, 512]              804,864                     0.76%                   --                        196,141,056               True
│    │    │    │    │    └─LayerNorm: 6-74                                  [4, 61, 512]              [4, 61, 512]              1,024                       0.00%                   --                        4,096                     True
│    │    │    │    │    └─ResidualConnectionModule: 6-75                   [4, 61, 512]              [4, 61, 512]              2,099,712                   1.97%                   --                        8,398,848                 True
│    │    │    │    │    └─LayerNorm: 6-76                                  [4, 61, 512]              [4, 61, 512]              1,024                       0.00%                   --                        4,096                     True
│    │    └─ResidualConnectionModule: 3-18                                  [4, 61, 512]              [4, 61, 512]              --                             --                   --                        --                        True
│    │    │    └─SqueezeformerBlock: 4-20                                   [4, 61, 512]              [4, 61, 512]              --                             --                   --                        --                        True
│    │    │    │    └─Sequential: 5-65                                      [4, 61, 512]              [4, 61, 512]              --                             --                   --                        --                        True
│    │    │    │    │    └─ResidualConnectionModule: 6-77                   [4, 61, 512]              [4, 61, 512]              1,313,792                   1.23%                   --                        5,251,072                 True
│    │    │    │    │    └─LayerNorm: 6-78                                  [4, 61, 512]              [4, 61, 512]              1,024                       0.00%                   --                        4,096                     True
│    │    │    │    │    └─ResidualConnectionModule: 6-79                   [4, 61, 512]              [4, 61, 512]              2,099,712                   1.97%                   --                        8,398,848                 True
│    │    │    │    │    └─LayerNorm: 6-80                                  [4, 61, 512]              [4, 61, 512]              1,024                       0.00%                   --                        4,096                     True
│    │    │    │    │    └─ResidualConnectionModule: 6-81                   [4, 61, 512]              [4, 61, 512]              804,864                     0.76%                   --                        196,141,056               True
│    │    │    │    │    └─LayerNorm: 6-82                                  [4, 61, 512]              [4, 61, 512]              1,024                       0.00%                   --                        4,096                     True
│    │    │    │    │    └─ResidualConnectionModule: 6-83                   [4, 61, 512]              [4, 61, 512]              2,099,712                   1.97%                   --                        8,398,848                 True
│    │    │    │    │    └─LayerNorm: 6-84                                  [4, 61, 512]              [4, 61, 512]              1,024                       0.00%                   --                        4,096                     True
│    │    └─ResidualConnectionModule: 3-19                                  [4, 61, 512]              [4, 61, 512]              --                             --                   --                        --                        True
│    │    │    └─SqueezeformerBlock: 4-21                                   [4, 61, 512]              [4, 61, 512]              --                             --                   --                        --                        True
│    │    │    │    └─Sequential: 5-66                                      [4, 61, 512]              [4, 61, 512]              --                             --                   --                        --                        True
│    │    │    │    │    └─ResidualConnectionModule: 6-85                   [4, 61, 512]              [4, 61, 512]              1,313,792                   1.23%                   --                        5,251,072                 True
│    │    │    │    │    └─LayerNorm: 6-86                                  [4, 61, 512]              [4, 61, 512]              1,024                       0.00%                   --                        4,096                     True
│    │    │    │    │    └─ResidualConnectionModule: 6-87                   [4, 61, 512]              [4, 61, 512]              2,099,712                   1.97%                   --                        8,398,848                 True
│    │    │    │    │    └─LayerNorm: 6-88                                  [4, 61, 512]              [4, 61, 512]              1,024                       0.00%                   --                        4,096                     True
│    │    │    │    │    └─ResidualConnectionModule: 6-89                   [4, 61, 512]              [4, 61, 512]              804,864                     0.76%                   --                        196,141,056               True
│    │    │    │    │    └─LayerNorm: 6-90                                  [4, 61, 512]              [4, 61, 512]              1,024                       0.00%                   --                        4,096                     True
│    │    │    │    │    └─ResidualConnectionModule: 6-91                   [4, 61, 512]              [4, 61, 512]              2,099,712                   1.97%                   --                        8,398,848                 True
│    │    │    │    │    └─LayerNorm: 6-92                                  [4, 61, 512]              [4, 61, 512]              1,024                       0.00%                   --                        4,096                     True
│    └─Linear: 2-7                                                          [4, 122, 512]             [4, 122, 512]             262,656                     0.25%                   --                        1,050,624                 True
│    └─ModuleList: 2-8                                                      --                        --                        (recursive)               (recursive)               --                        --                        True
│    │    └─SqueezeformerBlock: 3-20                                        [4, 122, 512]             [4, 122, 512]             --                             --                   --                        --                        True
│    │    │    └─Sequential: 4-22                                           [4, 122, 512]             [4, 122, 512]             --                             --                   --                        --                        True
│    │    │    │    └─ResidualConnectionModule: 5-67                        [4, 122, 512]             [4, 122, 512]             --                             --                   --                        --                        True
│    │    │    │    │    └─MultiHeadedSelfAttentionModule: 6-93             [4, 122, 512]             [4, 122, 512]             1,313,792                   1.23%                   --                        5,251,072                 True
│    │    │    │    └─LayerNorm: 5-68                                       [4, 122, 512]             [4, 122, 512]             1,024                       0.00%                   --                        4,096                     True
│    │    │    │    └─ResidualConnectionModule: 5-69                        [4, 122, 512]             [4, 122, 512]             --                             --                   --                        --                        True
│    │    │    │    │    └─FeedForwardModule: 6-94                          [4, 122, 512]             [4, 122, 512]             2,099,712                   1.97%                   --                        8,398,848                 True
│    │    │    │    └─LayerNorm: 5-70                                       [4, 122, 512]             [4, 122, 512]             1,024                       0.00%                   --                        4,096                     True
│    │    │    │    └─ResidualConnectionModule: 5-71                        [4, 122, 512]             [4, 122, 512]             --                             --                   --                        --                        True
│    │    │    │    │    └─ConvModule: 6-95                                 [4, 122, 512]             [4, 122, 512]             804,864                     0.76%                   --                        392,278,016               True
│    │    │    │    └─LayerNorm: 5-72                                       [4, 122, 512]             [4, 122, 512]             1,024                       0.00%                   --                        4,096                     True
│    │    │    │    └─ResidualConnectionModule: 5-73                        [4, 122, 512]             [4, 122, 512]             --                             --                   --                        --                        True
│    │    │    │    │    └─FeedForwardModule: 6-96                          [4, 122, 512]             [4, 122, 512]             2,099,712                   1.97%                   --                        8,398,848                 True
│    │    │    │    └─LayerNorm: 5-74                                       [4, 122, 512]             [4, 122, 512]             1,024                       0.00%                   --                        4,096                     True
├─Linear: 1-2                                                               [4, 122, 512]             [4, 122, 10]              5,120                       0.00%                   --                        20,480                    True
==========================================================================================================================================================================================================================================================
Total params: 106,545,162
Trainable params: 106,545,162
…
